2.Neural_Networks/2.8.SimpleNN/SimpleNNmodel.pth (torch, 2756 bytes, 5 tensors)

fc_in.weight f4 [5, 2]
000000 9b a1 31 3f 47 08 88 be a5 4f 77 3e 1d c2 01 bf
       0.69387215 -0.26568815 0.24151476 -0.5068682
000010 4e 03 56 bf 0a 39 f2 be 61 cc 12 3e 53 65 02 3e
       -0.8359879 -0.47309142 0.14335777 0.12733965
000020 32 a0 29 3e 3f fb f2 3e
       0.16565016 0.4745731

fc_in.bias f4 [5]
000000 7d 41 29 3f 09 f3 c9 be 96 f1 8e 3f c0 67 1a bf
       0.6611555 -0.39443234 1.1167476 -0.6031456
000010 d9 95 d8 3e
       0.42301825

fc_h1.weight f4 [5, 5]
000000 9d 6d 28 3f 29 c8 f4 3d f5 97 93 be 7f 56 68 3e
       0.65792257 0.1195224 -0.28826872 0.22689246
000010 0e 73 16 3f d8 0b de bd aa a5 a2 3e 00 bd 85 3f
       0.5876931 -0.10842103 0.31767017 1.0448303
000020 fe d6 bc 3e 5b 79 57 be 0b 2f 27 3b a0 85 bd bb
       0.36882776 -0.21042387 0.0025510218 -0.0057837516
000030 33 2e 41 3f 5f 19 81 3e d2 1e 2b 3d 1c 08 ab 3c
       0.7546112 0.2521467 0.04177744 0.02087789
000040 2f 3f dd bd fc d3 0d be 68 d9 aa 3d 97 10 28 be
       -0.10803067 -0.13850397 0.08342248 -0.16412579
000050 34 13 d1 be 26 56 9e 3e 26 4b 39 be 60 ce 0c 3e
       -0.40834963 0.309251 -0.18095073 0.13750601
000060 cf c1 da 3c
       0.026703743

fc_h1.bias f4 [5]
000000 83 3f 35 3f 6e f9 db 3e 9a ca 4c bd d3 aa 4f be
       0.70800036 0.42963737 -0.049997903 -0.20280008
000010 67 b9 94 3e
       0.290477

fc_out.weight f4 [1, 5]
000000 aa e2 85 3f b7 a6 86 bf 9d d2 2d bf 12 69 29 3e
       1.0459797 -1.0519627 -0.67899495 0.16543987
000010 5b e0 9b 3e
       0.30444607
